checkpoint_DQN_dualDQN.pth (torch_old, 29036 bytes, 7 tensors)

fc1.weight f4 [64, 37]
00000000: 3a93 b23d 4203 533d dbfb 8cbe 4c3e f6bd
00000010: ee4d 7dbe 869c c73d 2236 e9bd e7a1 4b3e
00000020: efae 7fbd 3c9e 013c 22c1 86bc 6869 6a3d
00000030: 6c77 8ebe 258d 99be 9b7b 8dbe d2bc e1bd
00000040: c922 d23d d69f 103e 3733 9fbd 8b1d 3abe
00000050: 8159 cd3d 5e17 053e 9b71 e3bc 3c0f 563d
00000060: 323c 35bd 34d1 41be 9e41 143e e5f1 66bd
00000070: dde2 a03d 3f74 29bb d613 f4bd ffaf 4e3e
00000080: faf8 3abe 69f0 153d 2c92 90bd 7790 2ebe
00000090: 65f1 bfbc c401 ad3d a92f b23d eeae 363c
000000a0: 0f44 73bd 9b67 95be e5bd a5bd c29e c0bd
000000b0: 4a58 c4bd 4713 4fbe 94e1 9bbd d884 4f3c
000000c0: 9aef f2bc cb62 aab9 ac8d 80bd 4358 ae3d
000000d0: 4f49 0ebe aadb 81bc 064d 283e bcaf 0e3c
000000e0: f45d b23c 018f adbd 7f1e cebd 743a 92bd
000000f0: c2ce 9fbe df6e 6dbd ab83 acbe 3481 2f3e
00000100: eeb5 493d 0042 4ebc 2d9b a43d 802c 7fbe
00000110: 6c29 5b3e 502c 3a3e be10 24be d29c 00be
00000120: b3b9 6e3d 6d1f e93c 3b19 393e c411 c13d
00000130: 5105 5b3d afb4 e1be ff16 b3be 19a5 86be
00000140: 3f58 86be 64d2 203e 3cde 0e3e 9af8 a5bd
00000150: 4c48 e4bc 9bc7 8cbe 9051 4bbd d455 c83c
00000160: a4e6 5fbe cbcf 093d 2840 9abd ba1d acbb
00000170: 9510 753d 0323 5cbe 96fc b2be be96 86bc
00000180: 9df2 833d 25f7 653d 2d29 8bbd e47f b2bb
00000190: 0c51 793d 5a1f 673d de20 c7bd 09a9 933d
000001a0: 434b 323d cd78 90be fb32 d0be 7da1 70bd
000001b0: cb73 25be 27b8 32be 84b1 eebc 111a b53d
000001c0: c489 dd3d baa8 183e 7d43 833d fd38 35be
000001d0: 97a0 c53c 729f b93c 4f64 0b3d b0e6 cfbd
000001e0: 4982 a3bd 7877 37bd f3f3 6d3c abe6 283c
000001f0: 2929 3cbd 458d 0cbc f3f4 083e 4783 bebd
00000200: 6da0 b6be f9f5 34be 559f 14bf 6475 283d
00000210: 8811 a9bd 40bd 903d 3959 a43d 8983 fc3d
00000220: 5def 8d3e 5882 93be 7589 57be 31a9 12be
00000230: 6e04 63bf f770 693d b4fe 0f3e ca42 1c3e
00000240: 7b86 4fbb 5b4f 5fbd a9b2 9c3d 3c4b 193b
00000250: 61ec a3bd ebeb 29bd c5ff b9bd dcae 8dbd
00000260: 06c1 8b3d fa2c bc3e d8d5 3fbf 2860 2ebf
00000270: 9ab2 0ebf d9e3 d3bf d178 00bd f630 a33d
00000280: e250 81bb 3913 83bd 8b79 c3bd 0e7c 11be
00000290: dbb1 3a3d fad1 ea3d 4410 b93b cb83 013e
000002a0: 92b4 42bd 3545 1b3d 7ef2 b53d 4d50 9b3d
000002b0: 43d4 393e 3830 9c3d 1aab b03d a301 533d
000002c0: e07c f33c fd48 c8bd 759c a63d 5135 923d
000002d0: a591 c43d 4bb0 cf3d ee77 963d 08bf 773b
000002e0: 50d3 ad3b 7fd1 b73c c799 413d 43ff 3ebd
000002f0: f118 93bc e5a5 473c 73c3 a93e 8255 c43d
00000300: 7d7d 0fbf 6ad0 02bf e924 91bf a47e d33d
00000310: 8059 b7bd 6871 b5bc c367 edbd feb2 ddbb
00000320: 01b8 b53c 1cae c43d 1466 01be ad60 dcbc
00000330: 385d fbbd 5750 e83d 980d 953c 23dc 023e
00000340: 16ad de3d bea6 dd3c 8ba5 e53c 382b 20bd
00000350: c34f e73b fced 2c3d 63b6 23bd 4bcd 19bc
00000360: d5f8 2f3d bdb4 0fbd f09c 0a3c dd4f b9bd
00000370: 83f0 a1bc 7392 133d 215b c8bc a698 b4bd
00000380: 5a0b d2bb db01 9abd 8f10 b0be 87b0 85be
00000390: 5a67 b7bd 49f2 933c 02a6 953d b323 a93c
000003a0: 54b6 ff3d bca5 073e 2365 4dbd e2ac f0be
000003b0: 8912 5a3e e569 57be 53f6 2a3d 208e 893c
000003c0: cf63 8fbd 548a c53d ff9f bdbd 095c 093e
000003d0: d15d 3abe 34bf 3abe ca8f 473e 1d58 11be
000003e0: 561f 513d 7ea6 2cbe faf4 8dbd 1942 913d
000003f0: f5d5 1e3e 9170 01be cb86 2dbe f061 c0bc
0.087194875 0.05151678 -0.275359 -0.12023601 -0.24736759 0.09746651 -0.11387278 0.1988598
-0.06242269 0.007911261 -0.016449515 0.05722943 -0.27825487 -0.29990497 -0.27633366 -0.11022343
0.10260541 0.14123473 -0.0777344 -0.18175332 0.10026837 0.12997195 -0.027764132 0.052260622
-0.04424686 -0.18927461 0.14478156 -0.056383032 0.07855771 -0.0025856642 -0.11917846 0.20184325
-0.1825904 0.036606226 -0.0705913 -0.17047296 -0.023430536 0.084476024 0.08700497 0.011150105
-0.059391078 -0.29180607 -0.0809286 -0.09405281 -0.09587152 -0.20222197 -0.07611385 0.01266595
-0.029655267 -0.00032498533 -0.06277022 0.08512928 -0.13895153 -0.015851814 0.16435632 0.0087088905
0.021773316 -0.084745415 -0.100644104 -0.07140055 -0.3121243 -0.057967063 -0.33694205 0.17139131
0.049245767 -0.012588978 0.0803741 -0.24919319 0.2140252 0.18180966 -0.16022012 -0.12559822
0.058282565 0.028457368 0.18076031 0.09427217 0.053471867 -0.44083163 -0.34978482 -0.26297835
-0.262392 0.15705258 0.13951963 -0.081040576 -0.027866505 -0.27496037 -0.04963833 0.024454989
-0.21865326 0.033645432 -0.07531768 -0.005252567 0.059830267 -0.21497731 -0.34958333 -0.016429301
0.06442759 0.0561439 -0.06794963 -0.0054473747 0.060868308 0.056426384 -0.09723066 0.07209975
0.043528806 -0.28217164 -0.40663895 -0.058747757 -0.16157453 -0.17453061 -0.02913738 0.088428624
0.10817292 0.14908114 0.06409357 -0.1769752 0.024124427 0.022659037 0.03403121 -0.10151422
-0.07983834 -0.04479167 0.014523494 0.010308902 -0.04593769 -0.008578603 0.1337469 -0.09302383
-0.3566927 -0.17671956 -0.5805562 0.041127577 -0.08255297 0.070673466 0.0802483 0.12329776
0.27721682 -0.28810382 -0.2104853 -0.14322354 -0.88678634 0.056992497 0.14062005 0.15259853
-0.003166585 -0.05451904 0.07651264 0.002339079 -0.0800407 -0.041484755 -0.09081987 -0.069181174
0.06823926 0.36753064 -0.74935675 -0.6811547 -0.55741274 -1.6553909 -0.03136522 0.07968323
-0.0039464096 -0.06400151 -0.09544667 -0.1420748 0.045579772 0.11465831 0.005647691 0.12647931
-0.047535487 0.037907798 0.08884142 0.075836755 0.18147378 0.076263845 0.08626385 0.051515233
0.029722631 -0.097795464 0.081353106 0.071390755 0.09598092 0.10141047 0.073470935 0.0037803072
0.0053047314 0.022438763 0.047265794 -0.046630155 -0.017956229 0.012185548 0.33156928 0.09586622
-0.56050855 -0.51099265 -1.1339389 0.10326889 -0.08952618 -0.022148803 -0.115920566 -0.0067657223
0.022182466 0.09603521 -0.12636596 -0.026901567 -0.122736394 0.113434486 0.018194959 0.12779288
0.10872857 0.027057048 0.028033039 -0.039103717 0.007059069 0.042219147 -0.03996886 -0.009387325
0.042961914 -0.035084475 0.008460268 -0.09048436 -0.019768005 0.036028337 -0.024457516 -0.08818178
-0.0064100446 -0.07519885 -0.34387633 -0.26111242 -0.089552596 0.018059867 0.07307054 0.020646906
0.12485948 0.13246816 -0.05014528 -0.470069 0.21296133 -0.2103649 0.04173882 0.016791403
-0.07001459 0.096455246 -0.092590325 0.13414015 -0.1819985 -0.18237 0.19488445 -0.14193769
0.051055275 -0.16860387 -0.06931491 0.07092685 0.15511306 -0.12640597 -0.1694595 -0.0234842

fc1.bias f4 [64]
00000000: 2773 033e 9a74 aebd 48fb 23be e9f9 883c
00000010: 3549 6f3e 9821 f1bb 5483 ffbd ca9e b93d
00000020: 6d93 643c 5023 6abe 3489 c73d 52ff 973d
00000030: 1371 a63d 41fc 0d3e 25a6 1bbe 76d1 90bd
00000040: 77aa ae3d 2d00 b6bc 7c4e 613d 5a8b 4cbe
00000050: a3b3 f0bd 52f8 363c 9e64 303c 5803 f0bd
00000060: a062 cabd e3d6 1b3e 2a95 8a3d ae3d 44be
00000070: ba3a 063e 4c19 f83d 90f8 95bc 6221 39be
00000080: 75e3 2f3e b3db 0dbd a6b4 08be b24d 8f3d
00000090: c050 d4bd afef 15bd bf51 8e3c adc4 2abe
000000a0: d182 debd a1c3 5ebd 087e 37bd 781d 2a3e
000000b0: bbd5 1ebd 4f91 05be a207 13bc 2e9e 61be
000000c0: f8ac 1fbe 1cf0 f63d d19a 17be 8d61 c23d
000000d0: 72ba 15bd 4bf6 53bd a5a3 61be f964 753d
000000e0: 92d5 d73d c6d4 b5bd 4abf e6bb fcca 17be
000000f0: b66e 273d 969d 4e3d a400 253d e839 f33c
0.12836896 -0.08518334 -0.16013825 0.016720729 0.2336777 -0.007358741 -0.12476221 0.0906349
0.013951165 -0.22865033 0.09742966 0.07421745 0.08127036 0.13865758 -0.15200098 -0.070712015
0.08528607 -0.02221688 0.05500649 -0.19975033 -0.11753013 0.011167603 0.0107661765 -0.11719388
-0.098820925 0.15218692 0.06766732 -0.19164154 0.1310834 0.121142 -0.018307 -0.18079141
0.17176612 -0.03463335 -0.13350162 0.06997241 -0.10366964 -0.036605533 0.017372964 -0.16676588
-0.10864795 -0.054385785 -0.044797927 0.16612804 -0.038778048 -0.13043712 -0.008973988 -0.22032997
-0.15593326 0.12057516 -0.14805152 0.094912626 -0.03655476 -0.051748555 -0.22035082 0.05991075
0.10538782 -0.08878474 -0.0070418464 -0.14823526 0.040877067 0.050443254 0.040283814 0.029690698

fc2.weight f4 [64, 64]
00000000: 972f d83b cfcd 69be b2da 253e 890a ff3c
00000010: fe57 c13d 8679 b4be b390 313e 683c c03d
00000020: 1d43 313d 85a8 57bd 8ba3 f1bd e303 35be
00000030: b712 77bd b44b 5c3e f102 15be 86e2 6bbe
00000040: f752 afbd d4e7 4dbe 5260 11be b3b3 c2be
00000050: 5798 08bd ac12 a9be 3236 4c3d 62e4 78bd
00000060: 3db5 24be fd9b 4d3d 8211 163e b48a c13d
00000070: 3c9e 783d ebd4 9dbc 59e3 253e 0f5b 83bd
00000080: b072 433e 133d 99bc 6eb2 213d aa1b efbc
00000090: e10d 55be ae78 d33c 6422 573d d811 afbd
000000a0: 7fd3 2dbd 47ab 6abd 7c45 093d 3305 acbd
000000b0: fb53 933d 9793 f2be c88a 80be d9a6 383e
000000c0: 4589 28bd e1a8 de3d 5461 febc f2e2 58be
000000d0: c780 92be 54ee d1bd 15e7 4fbe 032a babd
000000e0: b6f2 b43d b6b4 29be c99a fcbd 9e99 113d
000000f0: 7f66 e53c a0d6 473e 9128 75be 4d1a 843d
00000100: 8a26 f8bd 26f0 cf3d 65b3 7c3c ff73 423e
00000110: 78d7 343c 4007 233d 1a9e 29be 8dbc f03d
00000120: 5edb 85bd a6e9 78be 1170 0f3e a063 ce3d
00000130: 8b6c 39be f6ae c63d d4bb f43c 9869 09be
00000140: 6280 0a3d 8abb 4f3d f7b6 ccbd 5487 043d
00000150: 0bd4 b3bd 6ad5 72be bcdf f8bb ce79 59bd
00000160: 5beb f0bc 7cc1 653d e513 9f3c 314a 79be
00000170: d985 f43d 9d64 52bd 1f3a 3ebb 02b4 5abe
00000180: f905 3fbc 1763 87bd 2e59 b73c 3e8f 82bc
00000190: fa6a 9cbd 29e8 823e e657 d63e 5449 bbbd
000001a0: b082 293e 16b8 1abe c902 233e 7169 63be
000001b0: a52e 273e 39b2 2f3e c280 a3bd fe90 2cbd
000001c0: cc38 f2bd 9245 7cbe 59a4 8d3d 099d d03d
000001d0: 9374 73bc 23f2 1abe 652c d4bd 16aa e43d
000001e0: 7310 9dbc f4be 4e3e 04f5 263d dffa 333d
000001f0: 5a30 1dbe 208b f7bd 033d 8a3d 5c81 903d
00000200: cc61 56be 2140 9bbd c18f 533d 3edf 2ebc
00000210: 06ef b2be 19a7 45be 49b0 22be 36d6 bb3d
00000220: f947 c63d 5291 a4be 681a c03c 9683 26be
00000230: ae22 783c 2ba3 93bd 36dc 7c3e 0e2c a13d
00000240: 6103 3abe 7ca7 e4bd 6271 8f3d f0f5 ea3b
00000250: bee0 81be ab9f db3d b18b 11be 556f 493d
00000260: fe42 53be bdb9 523e d104 113e e5ab 8f3e
00000270: 9e98 923d 1d0a e33d cadd debd 1644 25bc
00000280: 118e 71be 74bf 55bd cd17 adbd 2860 423e
00000290: 2f4e e13d 5b99 2a3d 8a86 5b3e a005 813d
000002a0: 09c6 9d3e 6d09 00bc 7ea9 71bc 3727 cbbd
000002b0: 265e 2c3e 354a 23be 46ea 98bd 1221 7cbe
000002c0: 00c1 2dbe f187 2dbe 8698 d8bd aa8e c1bd
000002d0: 5a70 d6be 9c8e 03be 4cca 39be c311 23be
000002e0: eb44 4ebe 0af9 d6bd 26e2 433d 6807 0d3e
000002f0: 529c 30bd fe8a 02be 8078 af3d bb3f c83b
00000300: 6ad5 c1bc 7d31 25be 4df6 4b3b 2375 9ebe
00000310: b441 19be cda2 2b3c 1fc9 d8bd c86f 64bc
00000320: c1ce 53be b653 a43d 2e33 533d bbe0 e7ba
00000330: ea01 a0bd dd41 dc3d 1ebf 9a3e ab71 dcbd
00000340: 4cb1 073d 36fc 02be ce79 bb3c 3c95 c8bd
00000350: 2148 593d ce60 ec3d 27bc 1e3e a641 5f3d
00000360: a261 483d 0042 febd becc ccbc 04fe 58bd
00000370: a758 163e 9d11 88be 1f6f 2d3e 156a 2e3d
00000380: 4956 c33d 2ea0 90bb 1816 853c 3ac4 323d
00000390: 7249 cdbd 5c6a 663e a700 19be 1976 ca3c
000003a0: 8f47 17be 708c 943c 618e cfbe ee41 32be
000003b0: ee26 96bd 6a76 f13d 3aa5 a03c 59ad 273d
000003c0: c50a 863d b46c 383e 1b79 0bbe db44 17be
000003d0: 7d46 1bbc 1e91 613c b264 adbd 8872 e03d
000003e0: a2da 23bd 47ad 51be 6219 a1be c34f 403d
000003f0: 9072 82bd ecd2 8d3d ae44 03bd 8559 52be
0.00659747 -0.22832416 0.16196707 0.031132953 0.09440611 -0.35248965 0.17340355 0.093865216
0.043276895 -0.052650947 -0.117987715 -0.17677264 -0.060320582 0.21513253 -0.14551903 -0.2303563
-0.08560746 -0.20107967 -0.141969 -0.38027725 -0.033348408 -0.33022058 0.049856372 -0.060764678
-0.16084762 0.05019759 0.14655116 0.09450284 0.06069778 -0.019266566 0.16200007 -0.064138524
0.19086719 -0.01870588 0.039476804 -0.029187996 -0.20806076 0.02581438 0.05252303 -0.08548325
-0.042438027 -0.05729225 0.03351353 -0.08399429 0.071937524 -0.47378227 -0.25105882 0.18032397
-0.041146535 0.10872055 -0.031052269 -0.21180323 -0.28613874 -0.102505356 -0.20302995 -0.09090044
0.08835356 -0.16572842 -0.123342104 0.03554689 0.028002976 0.19515467 -0.23941256 0.06450329
-0.12116726 0.101532266 0.01542363 0.18989561 0.0110377 0.039801836 -0.16564217 0.11754713
-0.065359816 -0.2430788 0.14007594 0.10077596 -0.18107812 0.0970134 0.02987472 -0.13419187
0.03381384 0.05071596 -0.09995835 0.03235562 -0.08780678 -0.23714224 -0.0075950306 -0.053094678
-0.029409101 0.056092724 0.019418666 -0.24344708 0.11939592 -0.051365484 -0.0029026342 -0.2135773
-0.011659139 -0.06610697 0.022381391 -0.015937444 -0.07637592 0.2556775 0.41863936 -0.091448456
0.1655376 -0.15109286 0.15919031 -0.22208191 0.16326387 0.1715783 -0.07983543 -0.042130463
-0.118272394 -0.24635914 0.069161125 0.10186202 -0.014859336 -0.1513143 -0.1036003 0.11165254
-0.019172883 0.2019003 0.04076101 0.04394042 -0.15350476 -0.12087083 0.06749918 0.07055923
-0.20935744 -0.07580591 0.051650766 -0.010673342 -0.34947985 -0.19302024 -0.1588756 0.09171717
0.096816964 -0.3214212 0.023450091 -0.16261134 0.015144987 -0.07208856 0.24693379 0.07869731
-0.18165351 -0.111647576 0.07004048 0.0071704313 -0.25366777 0.107238136 -0.14213444 0.04917844
-0.20631024 0.20578666 0.14161994 0.28060833 0.07158016 0.11085913 -0.10882147 -0.010087034
-0.2358935 -0.052184537 -0.08451805 0.18981993 0.110012405 0.041650157 0.21438041 0.06299901
0.3081515 -0.007814747 -0.014749883 -0.09919589 0.1683279 -0.15946276 -0.07466559 -0.2462199
-0.16968155 -0.16946389 -0.105759665 -0.09451039 -0.41882592 -0.1284737 -0.18143576 -0.15924744
-0.20143478 -0.10496719 0.047823094 0.13772357 -0.04311783 -0.12748334 0.085679054 0.006111113
-0.023661334 -0.1613216 0.0031122149 -0.30948743 -0.1496647 0.010475826 -0.10585236 -0.013942666
-0.20684339 0.08023779 0.05156248 -0.0017690876 -0.07812865 0.1075475 0.30223936 -0.10763868
0.033128068 -0.12791523 0.02288523 -0.09794089 0.053047303 0.115419015 0.15501462 0.054505967
0.048921235 -0.12414932 -0.024999972 -0.052976623 0.14682256 -0.26575938 0.1693692 0.042581636
0.09537942 -0.004413626 0.016245887 0.043644167 -0.10023774 0.2250151 -0.14941655 0.024714516
-0.14773391 0.018133372 -0.40538314 -0.17407963 -0.07331644 0.11790164 0.019610036 0.0409368
0.06545023 0.18010217 -0.13620417 -0.1477236 -0.009477255 0.013767509 -0.08466472 0.10959345
-0.040003426 -0.20476256 -0.31464678 0.046951067 -0.06369507 0.06924996 -0.03204792 -0.20541961

fc2.bias f4 [64]
00000000: f264 9abd 1c11 dcbd df6f 673b 1521 cc3c
00000010: 2dfb 153e 321d f6bd a2c4 d0bd e686 003d
00000020: 8460 843e f7d8 e33d e84a 87bd 8af0 063e
00000030: 9836 6a3c c8b2 fcbc 1f76 5bbd 3eaf 2f3e
00000040: 72d3 06bd 75da a5bd af26 8dbd 6804 063e
00000050: 63d9 513e 79ff 603e 8768 2d3e 8532 f5bd
00000060: 0d6c cabc b28e bfbc 90ff 833d 8749 8ebd
00000070: b7af 68bd 1852 a1bc 4119 2fbc 6f97 c2bd
00000080: 29bb 153d 7ebd bf3d 1cbf 603d 34cf 8a3c
00000090: 81be 52bd 79c9 f3bd 13d1 73ba 022c 9abd
000000a0: 5d23 2ebd c9a7 713d 2cf4 423e 41d5 d8bc
000000b0: 6823 093c eaeb cd3c 6e8d ff39 03d4 36be
000000c0: 5b82 833e 7e29 abbd 4625 c03a b0a5 af3c
000000d0: a4bc b4bd 2a4d 9cbd 2f32 e53c 1568 3abe
000000e0: 329a d6bd 8d08 19be ca0c 5f3c 6481 afbd
000000f0: 423e 1e3e b570 9b3d 8f8d 403d b01c d6bd
-0.07538785 -0.10745451 0.0035314483 0.024918118 0.14646597 -0.12017287 -0.10193755 0.03137865
0.25854886 0.11125367 -0.06606084 0.13177696 0.014295243 -0.030846968 -0.053579446 0.17156693
-0.032916494 -0.08098308 -0.06892144 0.13087618 0.20493083 0.21972455 0.16934405 -0.119725265
-0.024709726 -0.023383472 0.06445229 -0.06947618 -0.0568082 -0.019692466 -0.010687173 -0.0950154
0.036555443 0.09362315 0.054869756 0.016944505 -0.05145121 -0.11903662 -0.0009300869 -0.07527925
-0.042514194 0.058997903 0.19038457 -0.026468875 0.008370258 0.025136907 0.00048742763 -0.17854314
0.2568539 -0.083575234 0.0014659546 0.02144131 -0.08825043 -0.076319054 0.027978031 -0.18203767
-0.10478629 -0.14944668 0.013613889 -0.08569601 0.15453437 0.075898565 0.04701 -0.104546905

advantage.weight f4 [4, 64]
00000000: 8aeb 5f3e c82c 1e3c 17cf 663e 70d0 a3bd
00000010: f52e bcbc 8b8e 8cbd 6b2a 823e a7f6 c6bd
00000020: dec9 e73c 575e 0ebe 900c 05be 0ac0 28be
00000030: 4195 dc3d 9a12 88be af37 dd3c 2074 bbbe
00000040: ffe4 433e 824b 9ebe 7407 943e 99f4 94b9
00000050: 1689 d4bc 0cf8 603e 3402 783d b327 4abb
00000060: e481 bc3c 4adb 17be 36a6 0bbe d300 463e
00000070: b37f ef3d b1ae 13bc be8c 25be 0dc9 bbbd
00000080: c6b7 523d e484 273d bc64 44bd ad95 883d
00000090: 078a 053e e916 95bd 050d 493e 9f58 7c3e
000000a0: ed43 8b3c 1b09 ad3c dbba e03d aea2 6b3c
000000b0: 1d53 783d 3a2a 823e 8fac b93d f33f c03e
000000c0: 4ca8 20be f465 76bd 11fb ec3d bb3d cc3d
000000d0: fc97 ca3e a188 1bbd 510b a13d 0bdc b2bd
000000e0: 41e2 2cbe e064 2a3e 28d1 363a 832d 533e
000000f0: c6b3 36be 32fd e13d 27cc 363e f7cd 8d3e
00000100: 762e 4e3e 6159 77bd bb26 523e 5cf5 89bc
00000110: fbec 703d 4dbd 733c 3df7 1b3e 0699 143e
00000120: 4607 93bd 3e26 173e 9197 8dbd 68b3 da3e
00000130: 2ce7 d6bd 9974 a63e 295d 69be 6e6f 883c
00000140: d85d b1be fe98 ebbd 9e75 18be 1221 bfbc
00000150: a04c 083d 0558 323e 7e98 83bb 9e16 d33d
00000160: 5084 723d f759 96bd 2222 423e 181a afbc
00000170: c870 c03d 516d f93d 239f 73be ec20 3e3d
00000180: 6919 153e 541b 82bb 32cc 803d 857f a93d
00000190: 530b f53d d26b 753e 4e22 3d3e 8755 e43e
000001a0: f253 4b3e cbf3 bc3d e451 b4ba d54c 093c
000001b0: 4cb4 b73c 8586 5a3e 417d 393e f45d 5b3e
000001c0: 5036 5a3c 1ba8 7fbd a974 f43e 381d 51bc
000001d0: 4de4 a63a 3df2 183e 9268 ec3c 0ed4 523d
000001e0: 39e8 15be cd45 dcbd 8d24 113e 5e23 d33d
000001f0: 8b9d 34be 3fd4 473d 8458 bf3d c18e 153e
00000200: afc9 7d3c f6fd bbbe 9b5d 063e ae91 ba3d
00000210: 8cbd 793e 6a0f 99bb 5d0e 833d 0303 4e3e
00000220: df21 723c 485e 9e3d 17ca 1fbe 6859 89bb
00000230: 1562 783d d232 30be c290 193e 8bf2 323d
00000240: 89cb 003f fb12 753d 0e3b 7e3e 0577 cabc
00000250: a52a 8a3d 66de 5d3d c0bc 2bbd 1f5d 59bc
00000260: cc90 f03c 4e68 5cbe 8d1a 663d 4508 4c3e
00000270: 619a 08be cf30 aa3e 76f9 cebd 2cdd eb3c
00000280: a9ce c2bd edfd d1bc a2c5 0f3e 6e64 1f3e
00000290: 6383 663e 8cfc 42be 9634 98be a5de 75be
000002a0: 67f4 543e de92 2e3c aac8 ff3c 0b74 31be
000002b0: db2b 373c c775 f63d d043 dc3d b285 683e
000002c0: 4a63 0a3e f5c2 32bd 9980 1dbe 21f1 793e
000002d0: 3ad7 773e f020 76bc 0550 573e 9684 063e
000002e0: dfa3 6e3c 0025 873c 3e90 79bd 6df4 f3bd
000002f0: 56ec 38be 38d9 e4bd 5d60 2cbd 38bb 5abe
00000300: bf1e 06be ecfa 743d de8d 73bd 5736 47be
00000310: dc3e 11be bed5 653e 8dea 00be ae6c 703e
00000320: 4830 c53d 41ef 3f3e 2633 1a3d 60e2 1fbe
00000330: 4ebf 7f3d 42b1 973d b54b 6b3d e8f5 53bd
00000340: 74d8 733e 9e60 163d 23f0 4a3e c6fd 073c
00000350: eaae fbbd 6b4c aa3d 804a 463d 411b 613d
00000360: 4d57 3fbe 0384 d3bd 21c0 8dbb 9dcf c63d
00000370: dec6 403e cc31 84be a87c 89be d522 893e
00000380: 5e04 2d3e 02c7 993d e4a2 c73d cd95 a5bd
00000390: 4d4e 88bc 8d0c cc3d fc54 7b3c 7f6e c53e
000003a0: 2a9a 86be 0b4f 8f3e 3050 fd3d 33dd efbd
000003b0: 0175 e13d 6373 adbd 9c64 fc3d ed38 c13d
000003c0: ddbb 0bbd 7a0e 9abd 30b3 49be 5c3b fcbb
000003d0: 24ca 913d a354 1dbe 6cdc b43d d83f 44bd
000003e0: a115 b03d 3c27 58bd c05b 0c3e 4b3f 803d
000003f0: ac8f ea3c 9016 c8bd b6fa 573a f066 a3bc
0.21867195 0.009654231 0.22539936 -0.07998741 -0.02297161 -0.068631254 0.25422987 -0.09715014
0.0282945 -0.13903175 -0.12993073 -0.16479507 0.107706554 -0.26576692 0.027004091 -0.36612034
0.19130324 -0.30916983 0.28911936 -0.00028411 -0.025944274 0.21969622 0.060548976 -0.0030846416
0.023011155 -0.14829746 -0.13637623 0.19336252 0.116942786 -0.009013818 -0.1616697 -0.09169207
0.05144479 0.04089822 -0.04794763 0.066691734 0.13040935 -0.072797604 0.19633873 0.24643181
0.017000163 0.021122506 0.1097314 0.014382048 0.060626138 0.2542284 0.09066116 0.3754879
-0.156892 -0.060155824 0.115713246 0.09972712 0.3956908 -0.037972096 0.078634866 -0.08733376
-0.16883184 0.16640043 0.0006973916 0.2062283 -0.17842016 0.11034621 0.17851315 0.276962
0.20134911 -0.060387973 0.20522587 -0.01684063 0.058819752 0.014876676 0.15231033 0.14511499
-0.07179122 0.14760682 -0.069136746 0.42715 -0.10493311 0.32510832 -0.22789444 0.016654696
-0.3464191 -0.1150379 -0.14888617 -0.023331199 0.0332762 0.1741639 -0.004015981 0.10307048
0.059208214 -0.07341378 0.18958333 -0.021374747 0.09396511 0.121790536 -0.23791175 0.046418115
0.14560474 -0.003970543 0.06288947 0.082762755 0.119650505 0.23966911 0.18470117 0.44596502
0.19856241 0.09226187 -0.0013757315 0.008380135 0.02242484 0.21340378 0.18114187 0.21422559
0.013318613 -0.062416177 0.47745255 -0.012763314 0.0012732834 0.14936157 0.028858457 0.051471762
-0.14639367 -0.10755501 0.141741 0.1030948 -0.17638223 0.048786398 0.09343055 0.14605238
0.01548998 -0.36717194 0.13121645 0.091098174 0.24388713 -0.004671027 0.06399224 0.20118336
0.014778583 0.077328265 -0.15604435 -0.0041915663 0.060640413 -0.17206886 0.14996627 0.04368834
0.5031057 0.059832554 0.24827215 -0.024714956 0.06746415 0.054167174 -0.041928053 -0.013266831
0.02936592 -0.21524164 0.056177665 0.1992503 -0.13340141 0.33240363 -0.10106175 0.028791986
-0.095120735 -0.025633777 0.14040235 0.15565655 0.22511058 -0.19041651 -0.2972762 -0.24010713
0.20796357 0.010655133 0.031223614 -0.17329423 0.01117989 0.12034183 0.10755122 0.2270725
0.13514438 -0.043642957 -0.15381087 0.2440839 0.24203196 -0.015022501 0.21026619 0.13136515
0.014565437 0.016497135 -0.060928576 -0.11911855 -0.18058905 -0.11174244 -0.042084087 -0.21360481
-0.13097666 0.05980961 -0.059461467 -0.19454323 -0.14184135 0.22444817 -0.12589474 0.23478958
0.096283495 0.18743612 0.037646435 -0.15613699 0.0624383 0.07406856 0.057445247 -0.051748186
0.23813039 0.036713235 0.19818167 0.00830025 -0.122892216 0.08315357 0.048410892 0.054957632
-0.18685646 -0.103279136 -0.004325882 0.09707568 0.18825862 -0.25819242 -0.26852918 0.26784387
0.16896197 0.07508661 0.09747866 -0.08085213 -0.0166389 0.09963331 0.015340086 0.38560864
-0.26289493 0.27989992 0.1236881 -0.11712112 0.11008645 -0.08469274 0.12323877 0.09434686
-0.034114707 -0.075222924 -0.19697261 -0.007697506 0.071186334 -0.15364318 0.08831105 -0.04791245
0.085978754 -0.05277179 0.13706875 0.06262072 0.028632961 -0.097699285 0.0008238958 -0.019946545

advantage.bias f4 [4]
00000000: 2694 e83d 5467 343d afb2 173c 3a32 85bd
0.11356382 0.044043854 0.00925891 -0.065037206

statevalue.weight f4 [1, 64]
00000000: 8727 25be 53d5 03be ee23 283e 2921 9bbd
00000010: 0730 433e eb58 b83d ef2a 4fbe 545e cabb
00000020: 88ac 313e 87e3 9a3c 697f 1cbe 912b c03e
00000030: 9665 063e d46c 7a3e e67d ff3e 8454 f03d
00000040: 80be 88be b1c1 6b3e ee0e 9cbe 94d7 6f3e
00000050: 1aa6 fb3d 4bc2 973e b6c4 323e 4280 aebc
00000060: bb78 b73e f8b5 02be 006d 3fbe dff7 74be
00000070: 2619 b63e 4f35 bc3c eec3 2bbe 2d0c 0b3e
00000080: c687 2a3e 1400 3d3e dd8c 463e 8659 303e
00000090: 94b0 903e c12d a8be ab3f 77bd 280e 9e3e
000000a0: c966 603e 00e4 35be 51f7 523e 4b49 2d3e
000000b0: 9cf9 1fbe 4535 213e 47c7 cf3d e63d a0be
000000c0: e4b7 033e c091 2a3e 4def df3e ef43 82bd
000000d0: 58d0 46be f157 2dbd 3f03 9c3d dfd4 9bbd
000000e0: 7286 223e 8d1c f7bd 70cf d93d fec7 82bd
000000f0: b8e6 293d bb64 5d3d 1e8b c2bc 305e 7ebd
-0.1612836 -0.12874345 0.16419956 -0.07574684 0.1906129 0.09001335 -0.20231222 -0.0061757956
0.17350972 0.018907322 -0.15282978 0.3753324 0.1312469 0.24455577 0.4990074 0.1173487
-0.2670784 0.23023106 -0.3048014 0.2342208 0.12287541 0.2964042 0.17457852 -0.021301392
0.35834298 -0.12764728 -0.18693924 -0.2392268 0.35566062 0.022974638 -0.1677396 0.13578863
0.16653356 0.18457061 0.19389673 0.1722165 0.28259718 -0.32847407 -0.060363453 0.30870175
0.2191421 -0.17762756 0.20602156 0.1692249 -0.15622562 0.15742977 0.10145431 -0.31297225
0.12863117 0.16657162 0.4373726 -0.063606136 -0.19415414 -0.042320196 0.07617807 -0.07608961
0.158716 -0.120659925 0.10635269 -0.06385802 0.041479796 0.054051142 -0.023747977 -0.062101543
