checkpoint_DQN_doubleDQN.pth (torch_old, 28481 bytes, 6 tensors)

fc1.weight f4 [64, 37]
000000 19 93 75 bd 5d 14 ba 3d 94 62 ae be 9b d2 b8 bb
       -0.059954736 0.09085915 -0.34059584 -0.0056403405
000010 fd e2 27 be 85 88 85 bd d2 49 96 3d 81 b2 ef 3c
       -0.16395183 -0.0652018 0.07338299 0.029259922
000020 3b 6a 02 be ff e3 43 bd 6e a1 14 3e 82 22 2e be
       -0.12735836 -0.047824856 0.14514706 -0.17005351
000030 67 6a 5e be 45 45 b9 be 7f 86 32 bf ec 8e 47 bd
       -0.21720277 -0.3618566 -0.69736475 -0.048720285
000040 62 05 ea 3d 1a 45 bf bc 97 7c 85 bc 85 1d e3 3d
       0.11426808 -0.02334838 -0.01629476 0.11089615
000050 9d 0c a5 3d 4d 44 b0 3d 93 fb 15 3e 62 fd ef bd
       0.080590464 0.08606777 0.14646749 -0.11718251
000060 06 1d b8 3d 57 7f 49 bd 5f 7a 9c 3d 7f 8a c9 bd
       0.08989911 -0.049193706 0.07640528 -0.09840869
000070 f0 86 d4 3d 77 e8 9e be 7c d1 99 bd b3 e0 47 3e
       0.103773 -0.31036732 -0.07510659 0.1951931
000080 f6 44 51 be a7 ca 2b bd ae aa 23 be 9c 44 ef 3b
       -0.20436463 -0.04194131 -0.15983078 0.00730188
000090 31 3b 16 bd aa 5b 0b 3c 7d a1 0f 3e 8f 81 b3 3c
       -0.036677543 0.008505741 0.14026447 0.021912364
0000a0 ef 48 0f bd d4 b3 9a be 34 b1 97 bc ab bc 17 be
       -0.034981664 -0.30215323 -0.018517114 -0.14818065
0000b0 9a 34 5c be 1d 7f b3 bd 2c ba 3d bd 37 ef 80 bd
       -0.21504441 -0.08764479 -0.046320125 -0.062956266
0000c0 50 60 21 3a ac c7 b8 3d 0b 8f b9 3d bc ca 71 3e
       0.0006156014 0.090224594 0.090604864 0.23612493
0000d0 59 43 ee bc 69 0b 79 3d bc eb 3d 3d 6a 15 30 bd
       -0.029084848 0.060801897 0.046367392 -0.042989172
0000e0 cb b7 77 bd bd 60 9c bd 1a 35 cb be a3 35 80 bc
       -0.060478013 -0.07635639 -0.3968895 -0.015650576
0000f0 ca d7 17 bc a9 84 a1 3e ff b2 ed bd 3b a2 2c bd
       -0.009267757 0.31546524 -0.116064064 -0.042146903
000100 50 c3 12 3e 92 22 9b bd 0b ef fc bc 03 bc d2 bc
       0.14332318 -0.07574953 -0.030875703 -0.025724417
000110 02 42 f8 bd 28 3f d2 3d cb 5d 30 3e 95 b0 d9 3e
       -0.12121965 0.10265952 0.17223279 0.42517534
000120 3f 9c 5e bc c7 0d 17 bc 27 1d 58 3d ad 86 6e 3e
       -0.013587057 -0.009219593 0.052762177 0.23293562
000130 fa af 9d bc d9 e0 5e be 74 eb 19 bf 71 43 07 bf
       -0.019248951 -0.2176546 -0.601249 -0.5283728
000140 e9 fc c3 bd bd 7d 89 3d ca 9c 2d 3e 6f 52 7a bc
       -0.09569723 0.06713436 0.16954342 -0.015278443
000150 ec e1 51 b6 b0 9b 68 bd f0 30 9c 3d 59 31 5c be
       -3.127493e-06 -0.0567891 0.076265216 -0.215032
000160 a9 f8 07 3d c2 64 80 be 4f c5 85 3e d5 9c 87 bd
       0.033196125 -0.25076872 0.26127097 -0.0662171
000170 7e ce 76 bd 10 fb 65 bd ae 08 00 be fb 5e 22 bd
       -0.06025552 -0.056147635 -0.12503311 -0.03964136
000180 b4 18 c0 bd 4d 30 64 3d 82 4f fb 3d 6b db 31 be
       -0.09379712 0.055710126 0.12271024 -0.17368858
000190 7f 3a 45 3e d5 1e bd 3d 5e 27 46 be 67 20 37 bc
       0.19260596 0.09234396 -0.19350955 -0.011177159
0001a0 3e 9f c2 be 58 da 99 3d cc 88 a4 bd fe 28 7c bd
       -0.38012117 0.07512349 -0.080339044 -0.06156253
0001b0 6f 61 58 bd ea 6e 98 3d 06 c4 95 3c b8 62 81 3e
       -0.052827295 0.0744303 0.018281948 0.2527063
0001c0 74 7f 6f be 3d 19 c6 bb c7 bd 88 be d9 96 c2 be
       -0.23388463 -0.006045489 -0.2670729 -0.38005713
0001d0 30 13 8f bb d9 c1 ee bd 8f 7f 5a bb 8b 5b 13 be
       -0.004366301 -0.11658067 -0.003334019 -0.1439039
0001e0 7a 3d 1a bd 48 5c 30 bd db 36 21 3d 14 c8 0d 3d
       -0.037656285 -0.043056756 0.039358955 0.034614637
0001f0 1f d3 9e be 2b ac 1e bd 1a b1 1b 3a e9 73 77 3d
       -0.31020448 -0.03873841 0.0005939171 0.060413275
000200 d9 b1 77 be 50 8d 80 be 63 ed 4d be 75 d3 0a 3e
       -0.24188937 -0.25107813 -0.20110087 0.13557227
000210 8c 59 f4 bd cb f6 41 be 75 4c f7 3b 19 08 d7 be
       -0.11931142 -0.189418 0.007546956 -0.41998366
000220 45 09 07 be 9c 13 f1 be 42 6a 88 3d ef 0a 4a 3e
       -0.1318713 -0.47085273 0.06660892 0.19730733
000230 1a 6a 76 3d ca c9 bf 3c db 72 80 3e 97 ad 06 3b
       0.06015978 0.02341165 0.25087628 0.0020550245
000240 06 d9 bd be 9f 57 87 bc c5 d6 0e 3e af 9b a0 3c
       -0.37079638 -0.016521273 0.13949116 0.019605486
000250 ba a8 ac bd 24 6a 2e bd 92 44 fd bd 6d d1 2c be
       -0.084306195 -0.042581692 -0.123665944 -0.16876765
000260 5e 37 7d bb 70 09 c5 3d bc 24 17 3e 10 e6 19 be
       -0.0038637738 0.09620941 0.14760107 -0.15029168
000270 91 b3 b9 3d cf 64 04 be 45 ba ab 3d 64 c1 9e bc
       0.09067453 -0.1292908 0.083851375 -0.019379325
000280 ab 44 87 bd 93 52 39 be 9e 3d ab be dc e9 ff bd
       -0.06604894 -0.18097906 -0.33445448 -0.12495777
000290 a4 4c a8 bd 15 96 1e 3c 9a a7 76 3d 06 c5 56 3e
       -0.08217743 0.009679337 0.06021843 0.20973596
0002a0 6f df 66 3d ef 22 b5 be 3f 29 a4 3c 07 e2 0b 3e
       0.056365427 -0.35378215 0.020039199 0.13660441
0002b0 b5 69 10 3f af 96 ed 3d 9e 85 18 3d 1f 15 fc bb
       0.56411296 0.11601006 0.037236802 -0.0076929475
0002c0 af ed 7c bd 67 c8 95 bd aa 7c 36 3e ba 5c bf bc
       -0.06175011 -0.07313614 0.17820993 -0.023359645
0002d0 a9 e4 25 bd 66 a3 4e bc d9 9e 46 3d 0d 32 8b bc
       -0.04050127 -0.012612199 0.048491333 -0.01699164
0002e0 66 4b 9b 3b 6b e9 75 bd 79 d3 40 3c d8 1e 4f 3d
       0.004739213 -0.060037058 0.011769169 0.050566524
0002f0 24 71 57 bc 22 f5 6f 3e 1b b8 ea 3d 92 02 e8 3d
       -0.013149533 0.23433354 0.114608966 0.11328615
000300 f4 f2 e9 3d 13 cd 3e bd 55 e6 1c bf 67 8b f5 bd
       0.11423293 -0.046582293 -0.6128896 -0.119894795
000310 b5 2a b8 bc 46 a7 de 3b 0b 00 93 bb fd e8 4a 3e
       -0.022481302 0.006794843 -0.004486089 0.1981544
000320 7f d8 d4 bd 4a 8e a5 3d c8 3f 13 bd ce 0a 59 3d
       -0.10392856 0.0808378 -0.0359495 0.05298882
000330 d4 7e 06 bd d5 cd 04 3e 7a d5 7d 3d fe 62 98 3d
       -0.032835796 0.12969144 0.061971165 0.07440756
000340 54 5c 2e 3d 6d 08 36 3e 04 93 91 3c b0 dc d4 bc
       0.04256852 0.17776652 0.017770298 -0.025984138
000350 0c aa 8d bd 87 77 e0 3d d7 39 c1 bd f1 9d 3f 3e
       -0.069171995 0.10960298 -0.0943486 0.18712594
000360 84 aa 8c 3c 6b b7 d6 be b7 90 00 be e9 d3 9a bf
       0.017171152 -0.41936812 -0.12555204 -1.209592
000370 8f 34 0d 3d 59 6b d8 3c 13 6b e9 3d 12 56 8d be
       0.034473952 0.026418375 0.11397376 -0.2760473
000380 51 de 98 be 12 46 47 3e bb 3b ac bd 01 5d 9e bc
       -0.29857114 0.19460323 -0.0840983 -0.019331457
000390 f7 5a f1 bd d6 d2 a5 3a 12 50 0e bd a5 0f 3a 3d
       -0.11784928 0.0012651335 -0.03474433 0.045425076
0003a0 8d f9 8b 3c 62 3a a4 3d 04 0b 87 bc a4 13 71 3c
       0.017086769 0.08018948 -0.016484745 0.014714155
0003b0 eb ae 10 3e 72 97 91 b9 38 0e c6 be bf 09 ca bd
       0.14129226 -0.0002776939 -0.38682723 -0.0986514
0003c0 c3 ad 0e 3e d5 04 92 3e d1 41 90 3d de 48 75 3c
       0.13933472 0.28519312 0.070438035 0.014970986
0003d0 70 73 03 be 64 eb 82 be e0 5c 89 3e b6 f7 ec bd
       -0.12837005 -0.25570214 0.2682867 -0.115706846
0003e0 d4 4f 17 be 07 25 20 3d 1d 9e 87 be 5a 36 c3 3a
       -0.14776546 0.039097812 -0.26487818 0.0014893517
0003f0 74 6c 06 be 27 cd 5f bc aa a9 1b 3e fc e2 1a be
       -0.13127309 -0.013659752 0.1520144 -0.1512565

fc1.bias f4 [64]
000000 3e e9 d1 3d fb 76 ab bd ea d6 10 be 96 ef fb bd
       0.102495655 -0.08372303 -0.14144483 -0.12301557
000010 e9 5a 45 3e 87 21 3c bd e0 41 ff bd 8a cd d6 bc
       0.1927296 -0.04593041 -0.124637365 -0.026221056
000020 6d 20 48 3d 43 a3 1c be 18 68 93 3d a4 f8 5d 3e
       0.04885905 -0.15296654 0.07197589 0.2167688
000030 90 96 a8 3d d3 62 b3 3d 79 a5 41 be 71 18 df bd
       0.082318425 0.087590836 -0.18910779 -0.10893334
000040 9d fd c3 3d 03 8b 51 bd 5e bd 85 3c df c1 4c be
       0.09569857 -0.051157963 0.016325649 -0.19995831
000050 24 80 94 bd 35 2f 93 bc 35 66 76 3d ff 10 c2 bd
       -0.072510034 -0.017966846 0.060156066 -0.09475898
000060 bf ab 04 be ed a2 15 3e fa 19 1f bd 6a cb ea bc
       -0.12956141 0.14612933 -0.038843133 -0.028661449
000070 1e 3a 03 3e 31 b7 d4 3d 86 9d 3b 3c f8 2d 6b be
       0.12815139 0.103865035 0.011451131 -0.22966754
000080 f0 b2 66 3e 37 8f 84 bd 36 83 ec bd a0 ff 4a 3d
       0.22529197 -0.064726286 -0.11548464 0.04956019
000090 e2 05 fa bb b9 8c 9e bc a0 6f 03 3b af 5b ac bd
       -0.007630096 -0.019354211 0.0020055547 -0.08415925
0000a0 61 db e7 bd b5 aa f1 3c 9d ab 2b be 88 06 3a 3e
       -0.1132114 0.029500345 -0.16764684 0.18166554
0000b0 6d 48 2d 3d 0e 82 d3 bc 07 88 d8 3b 9d b8 23 be
       0.0423054 -0.02581885 0.0066080126 -0.15988393
0000c0 fb f6 4b be 45 b7 d6 3d a2 81 13 be 93 b4 41 3d
       -0.19918434 0.10484175 -0.1440492 0.04729135
0000d0 75 76 16 3d bd 4a fa bd 79 32 04 be 0e b4 6c 3c
       0.036734063 -0.122212864 -0.12909879 0.014447225
0000e0 55 77 d0 3c 9a ae 7d bd 36 ca 6e bd ea a3 e9 bd
       0.025447527 -0.06193409 -0.058298312 -0.11408217
0000f0 8b b4 4d 3d 3b 01 21 bd 5e cd b5 3d 94 b0 1a 3d
       0.050221007 -0.039307814 0.08877061 0.037766054

fc2.weight f4 [64, 64]
000000 f8 41 22 3d 58 1d 29 be 11 2d 50 be ed dd 2a 3d
       0.039613694 -0.165151 -0.20329691 0.04171555
000010 d7 ae c2 3d f7 04 b0 be 7f ef 08 bf f8 bf 6c 3e
       0.09506004 -0.34378788 -0.5349044 0.23120105
000020 4d 9d 9e 3e 72 24 9c 3d 47 4d 25 3e a0 79 41 bd
       0.30979386 0.07624139 0.1614276 -0.04723513
000030 81 3a fb bd f4 8f 10 bd c8 98 55 3e b5 19 68 be
       -0.12267018 -0.035293534 0.20859063 -0.22666056
000040 39 d9 1e be fc 63 2b 3e 20 d1 d1 bd 96 b9 47 be
       -0.15512551 0.1673736 -0.102449656 -0.19504389
000050 9d c7 ab bd b6 18 1a be 39 27 e9 3d 33 e3 4a 3d
       -0.083876826 -0.15048489 0.11384434 0.04953308
000060 91 74 66 bd 00 74 84 bc fd ee a0 3d 04 5d e2 3c
       -0.05626351 -0.016168594 0.078580834 0.027632244
000070 5d 0c c8 be 34 14 aa 3c 66 98 d9 3e be d1 2b 3e
       -0.39071932 0.020761587 0.42499083 0.16779229
000080 c7 4e 0d 3e c5 c6 2c be c9 ce 62 3e 80 a1 01 3e
       0.13799582 -0.168727 0.22149195 0.12659264
000090 3c 24 3e be 5e 08 e3 3d d6 e4 b7 3d 01 be 3a be
       -0.1856851 0.1108558 0.08979194 -0.18236543
0000a0 ef 1f 5e be 6c 08 bd bb 9b 20 bd 3e 77 d2 1c be
       -0.21691869 -0.005768826 0.36938938 -0.15314661
0000b0 cb 52 16 3d 43 3e 50 3d c4 c8 f7 bc 9b fa 98 3e
       0.03670005 0.050840627 -0.0302471 0.29878697
0000c0 4e 1f 1c 3e 83 a3 43 3d 09 bd ff 3d d0 b5 56 3c
       0.15246317 0.04776336 0.124872275 0.013104871
0000d0 ba 3b 55 bd 69 6a 45 be 48 7b a2 bd ef f6 8e 3d
       -0.052058913 -0.19278874 -0.0793367 0.069806926
0000e0 d6 39 56 3d 16 89 b7 3d 53 5d 95 be 81 b5 9c 3e
       0.05230125 0.08961694 -0.29172763 0.30607226
0000f0 46 e3 f2 3d 54 31 df bb 90 ef ba bd 55 78 06 be
       0.11859755 -0.0068113003 -0.09127724 -0.1313184
000100 48 ef 6a bb be e3 2f 3d 1d 59 be be 7d c9 46 3d
       -0.003584819 0.0429418 -0.37177363 0.048531998
000110 cb 5c dc 3c 02 23 c9 3d 19 84 79 3d 54 a3 46 bc
       0.026899716 0.0982113 0.060916994 -0.012123901
000120 d7 ba 38 be 71 4f 9c bd fd 2b a1 bd c8 8c 2d 3e
       -0.18040024 -0.0763234 -0.07869718 0.16948235
000130 37 ec 39 bb df 72 83 3e 26 02 17 be d8 f8 a2 bc
       -0.0028369555 0.25673577 -0.14746913 -0.019894049
000140 42 9d 79 3d 4c 30 ff bc f8 bd b5 bd b7 10 01 bd
       0.06094099 -0.03115096 -0.08874124 -0.03151008
000150 90 e7 36 3e 42 91 17 be 43 b2 68 bd 48 63 88 bb
       0.17861772 -0.14801505 -0.05681063 -0.004162226
000160 8a 24 bc bd 04 dd 03 3d 44 76 7c bd 8c 00 21 3e
       -0.09186657 0.0321932 -0.061636224 0.15722865
000170 05 88 a5 3d 41 c1 91 be 6f dc 8b be ad 22 9a bd
       0.08082584 -0.28467754 -0.27316615 -0.07526145
000180 48 f5 9f bd 08 ae af 3d 10 89 dd bd 4a 86 f6 bd
       -0.078104556 0.08578116 -0.10817158 -0.12037332
000190 f4 7b 96 bd 87 0b 5b bd 6c 82 8c 3d ff ec 5c be
       -0.07347861 -0.05347779 0.068608135 -0.21574782
0001a0 c9 a8 6b bb c0 a5 37 3d 25 01 1b bc 28 28 0c be
       -0.0035958758 0.044835806 -0.009460722 -0.13687193
0001b0 ec 32 25 bd db 66 d0 bd e2 3f 00 bd 22 f5 01 bd
       -0.040331766 -0.10175868 -0.031310923 -0.031727917
0001c0 ac df 58 bc 25 fe 74 bc 78 bd 72 3d f9 77 21 3e
       -0.013236921 -0.014953171 0.059262723 0.15768422
0001d0 c0 ba 80 be f7 f3 e2 bd d8 a3 58 3c 90 05 9a 3d
       -0.2514248 -0.11081689 0.013222657 0.07520592
0001e0 e0 47 bf bd a7 e2 f5 bc 5a 08 bd 3e 2d be 03 3d
       -0.09339881 -0.030015303 0.36920434 0.032163788
0001f0 b5 c8 4d be 04 4c c2 3d f2 fe bd bc de e1 f8 bd
       -0.20096095 0.09487155 -0.023192856 -0.12152456
000200 77 01 99 bc c5 2a e8 bd f3 91 26 3e cd f2 d4 bd
       -0.018677456 -0.11336283 0.16266613 -0.10397873
000210 31 96 13 3e 49 9c 72 3c 77 67 f7 bd 2b 01 89 3d
       0.14412762 0.014807769 -0.12080281 0.06689676
000220 88 d3 89 3e 23 66 0f bd 62 6c 70 3e a5 40 6c 3c
       0.26919198 -0.035009515 0.23478845 0.014419709
000230 65 24 2e 3d 8e cf 12 3e b1 79 a6 3e 7f 94 3d bd
       0.042515177 0.14336988 0.32514718 -0.046284195
000240 3b 39 93 bd 59 6b d0 3d 7f a5 a5 3d fc c1 2d bd
       -0.0718865 0.10176725 0.080882065 -0.042421326
000250 4f 4f a0 bc 80 d3 69 3d df db b9 bd 34 2f 93 3d
       -0.019569067 0.057086468 -0.0907514 0.07186738
000260 5a 91 80 be 57 75 d2 3d ff 16 3a 3d d0 3e 1d 3e
       -0.25110894 0.10276287 0.045432087 0.15355992
000270 a6 de 9a 3d 45 f5 8a 3e 5b a0 9d 3d 09 a4 42 3d
       0.07561998 0.2714025 0.07696601 0.047519717
000280 d6 71 f0 3c 6a 46 6c bc f5 49 03 be b0 4f 08 3e
       0.029351156 -0.014421085 -0.12821181 0.13311648
000290 5d d1 22 3e 84 23 70 3d 16 64 14 3d 5f dc 06 bd
       0.15900178 0.05862762 0.036228262 -0.032925006
0002a0 aa ea 08 3e d1 46 b3 be 79 ff 8d 3c 56 21 67 be
       0.13370767 -0.35014966 0.017333733 -0.2257131
0002b0 d7 ac 02 bc 71 cf 1d be da 89 3b bb 80 e0 0c be
       -0.007975779 -0.15411164 -0.0028616101 -0.13757515
0002c0 ac 3d 06 3d 0f a0 54 3d df 30 8f 3d db 27 13 3d
       0.03277366 0.051910456 0.06991743 0.03592668
0002d0 1a ec 9b be 55 53 86 3e b9 c6 b8 bd 1f f5 ce bd
       -0.3045357 0.26235452 -0.09022278 -0.10105347
0002e0 bc 6a 43 bd 57 c9 c1 bc 7b fd ae 3e 83 b2 1d 3e
       -0.04770921 -0.023655577 0.34177765 0.15400128
0002f0 23 b6 bf bd 0e 18 24 3d 68 14 c8 bc b7 ff 40 bc
       -0.09360912 0.040062003 -0.024423793 -0.011779717
000300 ca d9 d8 3d 30 5e 8b bd f6 8b bb be 9c a3 92 3c
       0.10588415 -0.06805074 -0.3663022 0.01790028
000310 0d ff 8b 3b 64 27 d8 3c ba 23 da bd f5 22 ad bd
       0.004272348 0.02638597 -0.106513456 -0.08453933
000320 e0 a2 7d 3d 4b 6f 68 bc 25 18 87 bd 00 5a 32 3e
       0.061922908 -0.014186691 -0.06596402 0.17417145
000330 9a d4 4d be d6 80 4c 3e b3 b3 73 be 66 84 dc bd
       -0.20100632 0.19971022 -0.23799019 -0.107674405
000340 81 d7 52 bd 20 ef 02 bd e0 18 17 bd c6 ba c0 3d
       -0.05147505 -0.03196633 -0.036888957 0.09410624
000350 4b de e5 bd a8 ce bc 3e 1c 51 2e 3c 12 90 91 bc
       -0.1122404 0.36876416 0.010639455 -0.017768893
000360 89 51 ba 3d c5 0f 05 3e 58 0f 7c 3d cb c9 30 3d
       0.09097583 0.12994297 0.06153807 0.043161195
000370 90 e5 b9 3d 7d f9 16 bd f9 51 0a be 9b 27 92 bd
       0.09076989 -0.036859024 -0.13507833 -0.071364604
000380 d3 2d d9 bd 87 f9 7b be 58 99 ff 3d 31 07 8b 3d
       -0.106044434 -0.24606906 0.1248042 0.06788481
000390 49 63 16 be c4 19 7a be 14 fe 73 3b d8 5f ee 3d
       -0.14686312 -0.24423891 0.00372303 0.116393745
0003a0 3a 98 31 3e 21 54 46 3d fd 2d 95 3e 7d e6 3f bd
       0.17343226 0.048420075 0.2913665 -0.04685067
0003b0 a0 28 b2 bc 52 a3 c5 bd dd 8a fe 3d ad dc c4 bd
       -0.021747887 -0.096502915 0.1242883 -0.09612403
0003c0 90 06 bc 3c 5e a6 9f be d0 01 1a bd 0a e7 a5 3d
       0.022952348 -0.31181616 -0.037599385 0.08100708
0003d0 a8 63 14 bd 83 24 5d be 2f 82 b3 3d ae 1c 2c 3d
       -0.036227852 -0.2159596 0.08765065 0.04201954
0003e0 59 86 96 be ad 51 12 be 3b 67 45 3d c9 22 29 bd
       -0.29399374 -0.1428897 0.04819415 -0.04129294
0003f0 b3 74 9c be c9 1a 0e 3e 00 44 ea bd 73 09 ee be
       -0.30557784 0.13877405 -0.11438751 -0.46491584

fc2.bias f4 [64]
000000 fb d9 9d bd e1 58 e3 3c 03 34 80 3e d8 b2 b0 3d
       -0.07707592 0.027752342 0.25039682 0.08627862
000010 e8 96 a3 3d 39 31 55 be 3a 9c 19 be 7a 26 cc bd
       0.079877675 -0.20819558 -0.15001002 -0.09968276
000020 d0 a5 33 3d bf 03 da 3e c5 d4 5d 3c 82 8b 9d 3d
       0.043859303 0.42580983 0.013539498 0.07692625
000030 d1 98 4b 3e aa ab 46 bd 2e 76 d3 bd bc 9e 1c bd
       0.19882514 -0.048503555 -0.10325275 -0.03823732
000040 9e 5f 6e 3e 24 07 c5 bd b9 87 9d bd a9 bf 7e 3e
       0.23278663 -0.096205026 -0.07691903 0.248778
000050 37 40 b4 3e ee 03 db 3e 76 85 b9 bd 60 65 13 bd
       0.35205242 0.42776436 -0.09058659 -0.03598535
000060 02 7b b6 bd 96 4a 80 be 4a 1e 15 bd 84 6e 35 bd
       -0.08910181 -0.25056905 -0.03640584 -0.04429485
000070 ea 87 c5 3c 89 36 9b 3e 7d f0 2c bd 00 87 05 3a
       0.02411266 0.30315045 -0.042221535 0.0005093664
000080 6b a5 e7 3a 20 0f aa 3c e2 9b 8b bd bf e4 ec bc
       0.00176732 0.020759165 -0.06816842 -0.028917668
000090 ec b9 05 be 31 6b 5c be aa e0 a4 3e 52 9f 91 bd
       -0.13059205 -0.21525265 0.32202655 -0.07110466
0000a0 68 85 c0 bd f6 a4 f3 3e a4 6f 9b 3e 8a 78 f4 bc
       -0.09400445 0.47586793 0.30358613 -0.029842634
0000b0 e6 87 17 3d 9e f8 db bd ef 70 64 bd e3 37 0a be
       0.036994837 -0.10740779 -0.055771764 -0.13497882
0000c0 16 a6 23 3e 6c ec e6 bd 64 40 86 bd 4d f0 8c 3e
       0.15981326 -0.11275563 -0.0655525 0.27527085
0000d0 ac e0 cb bd b5 00 ad bd 76 c1 c0 3d fd 86 da 3d
       -0.09954962 -0.084474005 0.094119 0.10670278
0000e0 b4 d7 2f be d7 4b 15 be 7b 3c 39 3e 74 56 89 bd
       -0.17172128 -0.14579712 0.18089478 -0.06705943
0000f0 21 e1 9c bc c7 5f a8 3d 29 ae 5e 3d a5 e8 a9 bd
       -0.019150319 0.08221393 0.05436531 -0.082963265

fc3.weight f4 [4, 64]
000000 c3 db 26 be aa 45 4c 3e e1 40 11 3e b1 b4 26 3e
       -0.1629477 0.1994845 0.14184906 0.16279866
000010 ac fb 00 3f 2d cf b2 bd 5b c7 be 3d 6a 70 9e be
       0.5038402 -0.08730922 0.09315368 -0.3094514
000020 dd 54 52 3e 56 bb 36 3e 34 bc 3b bd 26 4c 59 3d
       0.20540185 0.178449 -0.04583378 0.053051136
000030 56 d8 f8 3d 71 19 8c 3e f9 9c 99 bd 0b 0a d7 bd
       0.12150638 0.2736316 -0.07500643 -0.104999624
000040 1c c2 0f 3d 2a 79 97 3e 7c b8 f7 bb eb 6c 27 3e
       0.035097227 0.29584628 -0.007559834 0.16350143
000050 4a 2d 23 3e a9 5a 0d 3e 14 02 2c bb eb 7e 82 3e
       0.15935245 0.13804115 -0.0026246356 0.25487456
000060 60 f3 5b 3e ce f6 44 be 34 d8 00 be dd ec e7 bd
       0.21479559 -0.19234774 -0.12582475 -0.11324475
000070 a7 72 a1 3e 7f dc b9 3d 01 79 62 be 96 b6 3a 3e
       0.31532785 0.090752594 -0.22116472 0.18233714
000080 40 cc 80 3d c8 29 dd 3e ba ca a7 3e 27 c5 da 3e
       0.062889576 0.4319594 0.32771856 0.4272854
000090 a0 c7 3b 3c 90 ff cc bd f0 63 15 3e 2c 5c ed 3e
       0.0114611685 -0.10009682 0.14588904 0.46359384
0000a0 7c 47 82 3e 97 5f 34 3e 13 ab 3a 3e 6f 05 37 bd
       0.25445163 0.1761459 0.18229322 -0.044682916
0000b0 bd e7 92 3e a2 8a e9 bd f8 5a 13 3e 84 e5 15 bd
       0.28692427 -0.11403395 0.1439017 -0.036595836
0000c0 fa 13 04 bd f9 fd d7 3e e0 03 dc 3d a7 b4 88 3e
       -0.032245614 0.42185953 0.107429266 0.26700327
0000d0 c6 53 2a 3e 16 05 9e be 47 d1 18 3e fb e3 5c be
       0.1663352 -0.30863255 0.14923583 -0.21571343
0000e0 2e 20 b5 be ac e9 67 bc 6c 45 b4 3e 36 23 08 3e
       -0.35376114 -0.014154833 0.35209215 0.13294682
0000f0 9c 88 f4 bd 77 d0 18 3e c8 ef 79 3b c4 aa 42 3e
       -0.11940119 0.14923273 0.0038137306 0.19010454
000100 35 05 d9 bd 5f e5 ac 3d f9 71 fb 3d 71 2c 09 3e
       -0.10596696 0.084421866 0.12277598 0.1339586
000110 5a 38 c1 3e 3b 4f 73 bd 81 eb 88 3c 2e 62 40 be
       0.37738305 -0.059401732 0.01671386 -0.18787453
000120 8e 68 0a 3e 66 89 10 3e c5 7e 16 3e 8e d2 1e 3e
       0.13516447 0.14114913 0.14696796 0.15510008
000130 9f b0 a0 3d 9a 0e c4 3e 3d 5b 48 3d 10 2f 04 3e
       0.07846188 0.3829239 0.048915137 0.12908578
000140 d9 b0 11 3d ef f6 90 3e 77 17 00 bd 68 05 c3 3d
       0.035569046 0.28313395 -0.031272378 0.095225155
000150 44 73 f3 3d 05 30 23 3e 86 35 5a bd 27 fc ce 3e
       0.118872195 0.15936287 -0.0532737 0.40426752
000160 ca 26 b6 3e 50 c9 14 be 03 ca 93 bc 11 0d a7 be
       0.3557647 -0.1452992 -0.018040663 -0.32627156
000170 e6 5a 9e 3e d0 4a 22 3e ee 44 ce bc 84 7e 18 3e
       0.30928725 0.15848851 -0.025179353 0.14892012
000180 84 27 89 3e 65 d4 b7 3e ca 8b f9 3e cf e0 74 3e
       0.2678796 0.35904232 0.48739463 0.23913883
000190 ba 87 05 3e 20 72 91 be 58 fd 48 3e 60 78 d2 3e
       0.13040057 -0.28407383 0.19627893 0.41107464
0001a0 ba 5e ae 3e 0b 28 19 3e 0b c1 0d 3e 1a df 58 3e
       0.34056646 0.14956681 0.13843171 0.21178856
0001b0 d3 08 13 3e 8a 91 0b be 95 65 64 3e 03 d9 9a bc
       0.14358835 -0.13629737 0.22304375 -0.018902307
0001c0 4f e1 65 3b 3f 48 e5 3e 31 da 2b bd ff 7b 8f 3e
       0.0035076921 0.44781682 -0.04195613 0.2802429
0001d0 0f 5d ae 3e 9d 56 0c be d3 6e 27 3e 26 34 46 bd
       0.34055373 -0.13704915 0.1635087 -0.048389576
0001e0 b4 82 d8 bd 40 a8 cc bd 2a 16 83 3e 29 3c 99 bd
       -0.10571805 -0.09993029 0.25602847 -0.07482178
0001f0 73 e2 06 be 76 b6 1f 3e 50 42 1a 3d b8 a8 c7 3d
       -0.13172321 0.15596947 0.037660897 0.097489774
000200 2d 3e f5 be 97 28 74 ba 32 2f 4f 3e 9f 6d af 3d
       -0.47899 -0.00093139097 0.20232847 0.085658304
000210 e0 1f 0a 3f 9f ba 55 be 9e 42 db 3d d0 a2 d9 bd
       0.5395489 -0.20871972 0.107060656 -0.10626757
000220 31 3d 0f 3e 44 d6 1a 3e 28 b4 1d be f4 89 5f 3e
       0.13988186 0.15120798 -0.15400755 0.21829969
000230 47 57 04 3e 6a 9a 08 3d a0 f3 96 be fd 8a 11 be
       0.12923919 0.033350386 -0.29482746 -0.14213176
000240 86 de 1f 3e 50 5e b8 3e a1 09 74 be 81 5a e7 3d
       0.1561223 0.36009455 -0.23831798 0.11296559
000250 a2 de 02 3e 00 d3 4c 3e ea cb 9d be 00 5f 89 3e
       0.1278024 0.20002365 -0.30819637 0.26830292
000260 b6 11 00 3f a5 e7 fd 3d 35 93 35 3d 3f 1d 4c bd
       0.50027025 0.12397698 0.04432984 -0.04983258
000270 b3 8a e5 3e f3 cb 3a 3e 11 1d ea bd 01 b4 35 3c
       0.44832382 0.18241863 -0.11431325 0.01109028
000280 8c d7 d1 be 2e f1 76 3e a9 62 37 3f 03 f4 d9 3e
       -0.40984762 0.2411544 0.7163492 0.4256898
000290 27 9c 36 be 81 e8 15 be a2 a8 28 3e 54 75 79 be
       -0.17833005 -0.14639474 0.16470578 -0.24361163
0002a0 ae 56 80 3e 60 a0 49 3e e4 71 4f 3e dc 85 12 3e
       0.2506613 0.19690084 0.2025829 0.14308876
0002b0 f6 65 7b 3e f4 e5 04 be 30 72 29 3e 5d 57 40 3e
       0.24550614 -0.12978345 0.16547465 0.18783326
0002c0 2b c5 59 3e 19 41 6a 3d 7f 1b 8c 3e 98 ca de 3e
       0.2126662 0.05719099 0.27364728 0.43513942
0002d0 16 d0 4b bd 46 5f 57 be c8 17 26 3e 85 b9 98 bc
       -0.049758993 -0.21032438 0.1622001 -0.01864315
0002e0 07 dc 73 be 95 9c 2c 3e e4 aa 05 3e 9a c3 85 3c
       -0.23814403 0.16856606 0.13053471 0.016328622
0002f0 39 b2 b2 bc de 45 74 3e b7 b1 83 be 91 8f 6e be
       -0.021813499 0.23854777 -0.25721523 -0.23296954
000300 18 7e 4e 3d 89 08 51 3d 2b 2e f0 3d 69 fa 14 bc
       0.05041322 0.05103353 0.11727556 -0.009092906
000310 d1 c8 11 3e 80 fe 38 be 68 f4 68 bd 9a 53 e3 bd
       0.14236762 -0.18065834 -0.05687371 -0.1109993
000320 ed 82 74 3e ad 0a 46 3e 8e ba 23 3e 6d 7c 5b 3e
       0.23878069 0.1934001 0.15989134 0.21434183
000330 ac 17 1c 3e e3 18 00 3f 5a f5 43 3e 80 c7 95 3e
       0.15243405 0.50037974 0.19136563 0.2925377
000340 5e 6b 81 3e 12 23 b0 be e0 83 3d 3e be 4a 22 3e
       0.25277227 -0.34401757 0.18507338 0.15848824
000350 3b e0 ab 3d 72 ed 3a 3e cb f9 26 be eb 4e 72 3e
       0.08392378 0.1825464 -0.16306226 0.23662917
000360 e4 8b 0c 3e f3 c9 93 be ed 9c a5 bd 50 38 91 be
       0.13725239 -0.28865013 -0.08086572 -0.28363276
000370 47 ba 83 3e 08 92 16 3d f3 8f 80 be dc 4a 37 3e
       0.25728056 0.03676036 -0.25109825 0.1789965
000380 26 81 b7 be 13 0c 12 3f f8 a6 0a be 5a 98 2d 3e
       -0.3584072 0.57049674 -0.13540256 0.16952649
000390 d2 44 38 be e1 00 2d be 9d 5d 6b 3e 44 03 01 3e
       -0.17995003 -0.16894867 0.2298493 0.12598902
0003a0 a3 70 3b 3d b0 33 37 3e 58 6d 4e 3e a1 82 1a be
       0.045761716 0.17890811 0.20158899 -0.15088893
0003b0 90 80 a2 3e a1 37 7f be 23 d1 aa 3d 38 bc 4e 3e
       0.3173871 -0.24923564 0.08340671 0.20188987
0003c0 bb 44 13 3e 56 f6 0a 3e 77 64 ec 3e 78 a6 6b 3e
       0.14381687 0.13570532 0.461704 0.23012722
0003d0 85 14 21 3e 71 8b f3 bd af d4 80 3e da d2 1a 3e
       0.15730484 -0.11891831 0.25162265 0.15119496
0003e0 61 2e 52 be 94 57 3c be ce 71 69 3e e4 a4 82 be
       -0.20525505 -0.18392783 0.2279732 -0.25516427
0003f0 49 b5 7f be 73 07 87 3e f9 95 08 3e 2a 16 23 3f
       -0.24971499 0.2637287 0.1333846 0.63705695

fc3.bias f4 [4]
000000 ab 5b a0 3e f3 73 8b 3e b3 26 15 3e b9 71 0a 3e
       0.31319937 0.272369 0.14565544 0.13519944
